models/cifar10_diagonal.pth (torch, 310422 bytes, 96 tensors)

conv1.weight f4 [16, 3, 7, 7]
-0.0013903151 0.04669406 -0.037049357 0.05262343 -0.02017073 0.09517314 -0.09012967 -0.061431188
0.012630708 -0.09365076 -0.24843396 0.084385365 0.252963 0.37273985 0.043467093 0.0073524322
-0.64964515 0.16852838 -0.107062176 -0.41271654 0.19775206 0.04718616 0.6403077 -0.011791517
-0.0 -0.0 -0.0 -0.0 -0.0 -0.0 -0.0 -0.0
-0.0 -0.0 -0.0 -0.0 -0.0 -0.0 0.0 -0.0
-0.0 -0.0 -0.0 -0.0 -0.0 -0.0 -0.0 -0.0
-0.0 -0.0027046103 0.0014056994 -0.005992348 0.031912982 0.0024536701 0.07197115 -0.11259854
0.024094077 0.007198757 -0.031132618 -0.25350642 0.04709973 0.15611126 0.3091332 -0.06030705
0.016914362 -0.7453849 0.6283856 0.29578835 -0.098552726 0.47142065 0.09658199 0.47499177
-0.84475374 -0.0 -0.0 -0.0 -0.0 -0.0 -0.0 -0.0
-0.0 -0.0 -0.0 -0.0 -0.0 -0.0 -0.0 0.0
-0.0 -0.0 -0.0 -0.0 -0.0 -0.0 -0.0 -0.0
-0.0 -0.0 0.029688435 0.0029348664 -0.0602064 0.02397285 -0.0645555 -0.004844808
-0.029589161 -0.029537361 -0.006121255 -0.08470436 -0.2013565 0.03065478 0.20061435 0.40269038
-0.0065559903 -0.04088951 -0.78106505 0.23756026 -0.11711425 -0.58867675 -0.094952784 0.065110914
0.60468036 0.36745447 -0.0 -0.0 -0.0 -0.0 -0.0 -0.0
-0.0 -0.0 -0.0 -0.0 -0.0 -0.0 -0.0 -0.0
0.0 -0.0 -0.0 -0.0 -0.0 -0.0 -0.0 -0.0
-0.0 -0.0 -0.0 -0.004161601 0.004433932 -0.04190496 0.053600114 0.06788544
-0.040034313 0.008153004 0.004700444 -0.011165545 -0.08624816 0.2841512 0.061645303 0.1717631
0.23461889 -0.002830218 0.0008497001 -0.69210535 -0.4578476 -0.7969612 -0.30960757 -0.26542708
-0.03885674 -0.10983625 1.3144338 0.0 0.0 0.0 0.0 0.0
0.0 0.0 0.0 0.0 0.0 0.0 0.0 0.0
0.0 0.0 0.0 0.0 0.0 0.0 0.0 0.0
0.0 0.0 0.0 0.0 0.006708581 -0.031218737 -0.0090831835 0.06590286
0.026714554 -0.037281312 -6.929885e-05 -0.06563798 0.039283577 -0.11742556 0.29793346 -0.014394257
0.09980696 0.22837114 -0.022507915 -0.029599879 -0.7339914 0.03914596 -0.37221313 -0.06001499
0.04923185 0.055237986 -0.14035243 1.7916161 0.0 0.0 0.0 0.0
0.0 0.0 0.0 0.0 0.0 0.0 0.0 0.0
0.0 0.0 0.0 0.0 0.0 0.0 0.0 0.0
0.0 0.0 0.0 0.0 0.0 0.013495897 -0.0048174732 0.0012474222
0.03894652 0.047947392 -0.02496614 0.009890227 -0.0028805088 0.06346419 -0.0092478385 0.30751264
00000000: 3c3b b6ba 4542 3f3d 11c1 17bd aa8b 573d
00000010: 163d a5bc 23ea c23d e895 b8bd 459f 7bbd
00000020: 07f1 4e3c f8cb bfbd 7965 7ebe 3cd2 ac3d
00000030: 5e84 813e c2d7 be3e 8d0a 323d acec f03b
00000040: 254f 26bf b492 2c3e 6a43 dbbd 954f d3be
00000050: 847f 4a3e 4646 413d 35eb 233f 3531 41bc
00000060: 0000 0080 0000 0080 0000 0080 0000 0080
00000070: 0000 0080 0000 0080 0000 0080 0000 0080
00000080: 0000 0080 0000 0080 0000 0080 0000 0080
00000090: 0000 0080 0000 0080 0000 0000 0000 0080
000000a0: 0000 0080 0000 0080 0000 0080 0000 0080
000000b0: 0000 0080 0000 0080 0000 0080 0000 0080
000000c0: 0000 0080 d53f 31bb 723f b83a 755b c4bb
000000d0: 30b7 023d c1cd 203b 9c65 933d 109a e6bd
000000e0: f160 c53c 8de3 eb3b d509 ffbc 98cb 81be
000000f0: a6eb 403d a1db 1f3e b546 9e3e 8604 77bd
00000100: fd8f 8a3c 8bd1 3ebf e1dd 203f 9271 973e
00000110: 03d6 c9bd 0c5e f13e c7cc c53d 1f32 f33e
00000120: c841 58bf 0000 0080 0000 0080 0000 0080
00000130: 0000 0080 0000 0080 0000 0080 0000 0080
00000140: 0000 0080 0000 0080 0000 0080 0000 0080
00000150: 0000 0080 0000 0080 0000 0080 0000 0000
00000160: 0000 0080 0000 0080 0000 0080 0000 0080
00000170: 0000 0080 0000 0080 0000 0080 0000 0080
00000180: 0000 0080 0000 0080 2935 f33c e356 403b
00000190: fc9a 76bd b662 c43c ad35 84bd 32c1 9ebb
000001a0: f864 f2bc 56f8 f1bc cf94 c8bb 7b79 adbd
000001b0: 6630 4ebe bc1f fb3c d96d 4d3e 6f2d ce3e
000001c0: a2d3 d6bb c27b 27bd e1f3 47bf ff42 733e
000001d0: 99d9 efbd 85b3 16bf 9b76 c2bd df58 853d
000001e0: 55cc 1a3f fe22 bc3e 0000 0080 0000 0080
000001f0: 0000 0080 0000 0080 0000 0080 0000 0080
00000200: 0000 0080 0000 0080 0000 0080 0000 0080
00000210: 0000 0080 0000 0080 0000 0080 0000 0080
00000220: 0000 0000 0000 0080 0000 0080 0000 0080
00000230: 0000 0080 0000 0080 0000 0080 0000 0080
00000240: 0000 0080 0000 0080 0000 0080 0a5e 88bb
00000250: 844a 913b 89a4 2bbd cb8b 5b3d 8607 8b3d
00000260: 05fb 23bd 2d94 053c 2f06 9a3b b1ef 36bc
00000270: e0a2 b0bd 447c 913e c97f 7c3d abe2 2f3e
00000280: ef3f 703e 2e7b 39bb 69be 5e3a d12d 31bf
00000290: 006b eabe a605 4cbf e284 9ebe 0fe6 87be
000002a0: 3f28 1fbd d4f1 e0bd 5e3f a83f 0000 0000
000002b0: 0000 0000 0000 0000 0000 0000 0000 0000
000002c0: 0000 0000 0000 0000 0000 0000 0000 0000
000002d0: 0000 0000 0000 0000 0000 0000 0000 0000
000002e0: 0000 0000 0000 0000 0000 0000 0000 0000
000002f0: 0000 0000 0000 0000 0000 0000 0000 0000
00000300: 0000 0000 0000 0000 0000 0000 0000 0000
00000310: a8d3 db3b 70be ffbc a2d1 14bc 14f8 863d
00000320: 7bd8 da3c 4ab4 18bd 8954 91b8 356d 86bd
00000330: d1e7 203d d07c f0bd bc8a 983e e4d5 6bbc
00000340: 9767 cc3d 20da 693e 8562 b8bc 727b f2bc
00000350: dce6 3bbf 8457 203d b892 bebe 47d2 75bd
00000360: 56a7 493d 3a41 623d 8cb8 0fbe ad53 e53f
00000370: 0000 0000 0000 0000 0000 0000 0000 0000
00000380: 0000 0000 0000 0000 0000 0000 0000 0000
00000390: 0000 0000 0000 0000 0000 0000 0000 0000
000003a0: 0000 0000 0000 0000 0000 0000 0000 0000
000003b0: 0000 0000 0000 0000 0000 0000 0000 0000
000003c0: 0000 0000 0000 0000 0000 0000 0000 0000
000003d0: 0000 0000 e51d 5d3c e5db 9dbb 8b80 a33a
000003e0: 6386 1f3d 7c64 443d ca85 ccbc 9e0a 223c
000003f0: ebc6 3cbb 83f9 813d 3f84 17bc 4c72 9d3e

conv1.bias f4 [16]
-0.15750074 0.009196175 -0.10787825 -0.16786611 0.0033382678 0.2727373 0.40851742 0.22514118
-0.05116049 -0.11954136 2.3308794 0.083919555 -0.09672888 -0.021205595 0.03914537 -0.18395498
00000000: e047 21be 8eab 163c 46ef dcbd 18e5 2bbe
00000010: d7c6 5a3b 39a4 8b3e 3229 d13e 698b 663e
00000020: a98d 51bd 1ad2 f4bd 212d 1540 04de ab3d
00000030: cb19 c6bd 5bb7 adbc e556 203d b25e 3cbe

lstm_list.0.conv_is.weight f4 [80, 16, 1, 1]
-0.028425056 0.29985482 -0.6780233 -0.029985927 0.0026307292 0.17359467 -0.17496616 0.011631287
-0.34132642 -0.04342152 0.20650914 -0.23198688 -0.21689749 -0.11387462 0.050366215 -0.23049587
0.14886416 -0.295048 -0.4131553 -0.13622458 -0.3253433 0.39680466 0.008333075 -0.8112978
-0.16549379 -0.21265653 -0.47104418 -0.35589227 -0.30743355 -0.054234017 -0.28749686 0.4542631
-0.08670468 0.05473251 -0.122577295 -0.055001996 0.16361699 -0.10522098 0.1805047 -0.42780125
-0.038456306 0.049163774 -0.008503351 -0.03210737 0.31187055 -0.01555673 0.4020472 -0.058069956
0.6595186 -0.3353587 -0.30128893 0.3774074 -0.18144587 0.254402 0.06772335 -0.037479043
0.39090258 -0.104819894 0.3531622 0.14643122 -0.22857045 -0.14885175 0.29238394 -0.34269145
-0.2758555 0.8337219 0.2283915 -0.36712536 -0.30989677 -0.945089 -0.8541223 -0.76248163
0.8700328 0.17304122 0.49068773 -0.48417526 -0.07044419 0.78105724 0.6384802 0.1790941
-0.15807496 -0.46707892 -0.8432856 -0.49262553 -0.06738578 -0.29366434 -0.10705737 -0.20339058
0.31946564 0.04123933 -0.88546336 0.5731308 0.09532407 -0.19757101 -0.014079101 0.21578813
-0.13086131 -0.44660428 -0.034415595 0.04544003 -0.17010836 0.13302614 -0.60874397 0.20389172
0.17473498 -0.10976688 -0.24538887 0.1555453 -0.20414887 -0.0134713035 -0.24260135 -0.02032847
0.31627163 0.78340334 0.5047345 0.18672785 0.04433287 0.26207635 0.021143503 0.1474085
-0.1725885 0.23483688 -0.24773969 -0.25210097 -0.07788246 0.06053859 0.16541155 -0.10841627
0.3000233 -0.062238067 -0.16847102 -0.243212 -0.30960953 0.91675836 -0.16276674 0.3619901
0.16422457 0.009892559 -0.19777009 0.034621984 -0.04996656 -0.244474 0.43902794 -0.13719893
0.89472246 1.6112596 0.569102 0.42870542 0.0645961 0.62692046 0.14153777 -0.015040814
0.4202384 0.38320687 -0.61540866 -0.37851766 -0.6498838 -0.23861729 0.03488249 -0.09105808
0.060890917 0.18721622 0.4080548 0.08831554 -0.4056697 0.2950154 0.5933546 -0.09120448
-0.12450854 -0.018740913 0.6402052 -0.60997653 0.29157594 -0.034895003 0.46190256 -0.27077997
-0.39535436 -1.0302691 0.49084413 -0.20967314 -0.23368861 -0.25750673 -0.75670636 0.09594242
0.08220565 -0.15699883 0.42870745 0.21846165 0.29669824 0.104758374 0.3580052 -0.068243675
0.19380286 -0.23037364 1.5059395 -0.08393438 -0.27948594 0.37466148 -1.0995874 0.603634
0.1334185 0.0020734677 -0.040031627 0.17688024 -0.122953266 -0.028836066 0.1564446 -0.060626592
0.27851558 -0.24109544 0.30317733 -0.29388642 0.07233873 -0.08229919 -0.11877894 0.038684845
0.42751524 -0.0019349381 0.06204818 0.07740125 -0.3158574 -0.36880282 -0.08797818 -0.06757
-0.22108893 -0.43657333 -0.24977256 -0.19292559 -0.02662454 0.05008272 0.25033975 0.0010382604
0.23340079 -0.026843835 -0.15750067 0.12808962 -0.2840822 -0.12513989 0.18957339 -0.0813369
-0.11491634 0.28102627 0.02769589 -0.19012083 -0.065471634 0.4454607 0.37218124 -0.062188752
-0.002438168 0.13330151 0.029295558 -0.24397257 0.36197266 -0.23268206 0.51372224 -0.040324442
00000000: aadb e8bc 9286 993e ef92 2dbf 0ca5 f5bc
00000010: 5068 2c3b cdc2 313e 542a 33be 2791 3e3c
00000020: 56c2 aebe c4da 31bd 2277 533e f88d 6dbe
00000030: 601a 5ebe 1937 e9bd ce4c 4e3d 1c07 6cbe
00000040: d96f 183e 8810 97be 1789 d3be 757e 0bbe
00000050: 6693 a6be fb29 cb3e 7387 083c 36b1 4fbf
00000060: 3477 29be a2c2 59be b42c f1be 8337 b6be
00000070: ee67 9dbe 7d24 5ebd ca32 93be 2c95 e83e
00000080: 3992 b1bd 322f 603d ce09 fbbd c649 61bd
00000090: 368b 273e 197e d7bd 39d6 383e c408 dbbe
000000a0: 5c84 1dbd f45f 493d a451 0bbc 0583 03bd
000000b0: 7fad 9f3e a8e1 7ebc 21d9 cd3e c3da 6dbd
000000c0: 36d6 283f 23b4 abbe 8b42 9abe 8b3b c13e
000000d0: f2cc 39be fb40 823e 8ab2 8a3d a083 19bd
000000e0: 6224 c83e d0ab d6bd add1 b43e 11f2 153e
000000f0: 5f0e 6abe 986c 18be 59b3 953e 4175 afbe
00000100: ef3c 8dbe cc6e 553f 76df 693e dbf7 bbbe
00000110: caaa 9ebe 5af1 71bf c2a7 5abf ff31 43bf
00000120: 78ba 5e3f b831 313e 6c3b fb3e d2e5 f7be
00000130: 0b45 90bd 5ef3 473f 7073 233f 7264 373e
00000140: 67de 21be f824 efbe 91e1 57bf 6a39 fcbe
00000150: 8e01 8abd 2c5b 96be e540 dbbd 9f45 50be
00000160: 0091 a33e 92ea 283d baad 62bf b3b8 123f
00000170: 4439 c33d 0e50 4abe 08ac 66bc 90f7 5c3e
00000180: 8200 06be 51a9 e4be 5ef7 0cbd 531f 3a3d
00000190: e330 2ebe 0138 083e a5d6 1bbf fec8 503e
000001a0: baed 323e 75cd e0bd 3847 7bbe 4447 1f3e
000001b0: 670c 51be beb6 5cbc 7d6c 78be e487 a6bc
000001c0: 5bee a13e 1f8d 483f 4836 013f 9635 3f3e
000001d0: 6296 353d df2e 863e 2435 ad3c 41f2 163e
000001e0: 0abb 30be 1479 703e 79af 7dbe 6113 81be
000001f0: d780 9fbd 50f7 773d a561 293e 5909 debd
00000200: a79c 993e 58ed 7ebd ab83 2cbe 910c 79be
00000210: 2485 9ebe adb0 6a3f 53ac 26be c456 b93e
00000220: 7c2a 283e 6614 223c 3e84 4abe c8cf 0d3d
00000230: bca9 4cbd 6457 7abe 45c8 e03e e07d 0cbe
00000240: 880c 653f c13d ce3f abb0 113f 477f db3e
00000250: f64a 843d dc7d 203f 47ef 103e bf6d 76bc
00000260: 7d29 d73e b133 c43e 6c8b 1dbf 11cd c1be
00000270: c95e 26bf 1758 74be f1e0 0e3d a97c babd
00000280: c168 793d 9cb5 3f3e 8fec d03e c7de b43d
00000290: f0b3 cfbe 420c 973e 16e6 173f 6ac9 babd
000002a0: 55fe febd 8b86 99bc 7de4 233f 6c27 1cbf
000002b0: 7149 953e 10ee 0ebd 7e7e ec3e aca3 8abe
000002c0: e36b cabe dcdf 83bf ec4f fb3e 8eb4 56be
000002d0: 114c 6fbe ecd7 83be 82b7 41bf 767d c43d
000002e0: 705b a83d 4dc4 20be 8b7f db3e 69b4 5f3e
000002f0: d5e8 973e 8f8b d63d 754c b73e 57c3 8bbd
00000300: 4274 463e 11e7 6bbe a0c2 c03f cae5 abbd
00000310: c818 8fbe a1d3 bf3e 48bf 8cbf c287 1a3f
00000320: dc9e 083e 04e3 073b 34f8 23bd 1820 353e
00000330: ecce fbbd 9d39 ecbc 0333 203e 9753 78bd
00000340: 9899 8e3e b9e1 76be 0f3a 9b3e 4878 96be
00000350: 5426 943d 7a8c a8bd 5f42 f3bd 0074 1e3d
00000360: 47e3 da3e c09d fdba 3b26 7e3d 8c84 9e3d
00000370: 10b8 a1be b9d3 bcbe e72d b4bd 2462 8abd
00000380: 2365 62be 8a86 dfbe 61c4 7fbe 498e 45be
00000390: b51b dabc 8a23 4d3d 882c 803e 3d16 883a
000003a0: 9e00 6f3e 9ae7 dbbc db47 21be ed29 033e
000003b0: 3973 91be ac24 00be 871f 423e f693 a6bd
000003c0: 4259 ebbd ade2 8f3e 7ee2 e23c 09af 42be
000003d0: fe15 86bd 6d13 e43e 8a8e be3e a2b9 7ebd
000003e0: acc9 1fbb 3180 083e 3dfd ef3c f2d3 79be
000003f0: 7b54 b93e 3544 6ebe 4d83 033f 3e2b 25bd

lstm_list.0.conv_is.bias f4 [80]
0.066803925 -0.5222184 0.28012675 0.2245635 0.06256636 -0.36804584 0.27640176 0.49611413
0.36704287 0.45632452 0.16797201 0.33597547 -0.019662855 0.4470169 0.46279702 0.79290366
-0.30699408 -0.24616632 -0.3140624 0.07525537 -0.059293345 -0.14895444 -0.22685349 0.32765877
0.14790344 0.05196804 -0.41997418 0.06541024 -0.063538246 -0.37736607 -0.22896217 -0.22282855
-0.48582312 -0.33296517 -0.44998416 -0.45112658 -0.6041164 -0.20063058 -0.4684345 -0.67151076
-0.37395465 -0.16921651 -0.39671394 0.042206954 -0.35280675 0.026935002 -0.1249265 -0.5438882
-0.09000362 -0.6794714 0.17980073 0.07058715 0.22194354 0.22993678 -0.1616244 -0.22970912
-0.08836383 0.21846849 -0.011570229 0.49781424 -0.070509315 -0.061794482 -0.07140623 0.15131617
-0.09028806 -0.3128124 0.1046927 0.035393015 -0.027280241 -0.8140419 -0.05695819 -0.2722103
-0.46584547 0.4416985 -0.36791864 0.25233105 -0.31872138 0.15128411 0.09999542 -0.27602082
00000000: 7fd0 883d 1bb0 05bf c66c 8f3e f9f3 653e
00000010: cb22 803d 8170 bcbe 8884 8d3e ac02 fe3e
00000020: 0bed bb3e 5ea3 e93e db00 2c3e fa04 ac3e
00000030: ff13 a1bc 66df e43e bbf3 ec3e bcfb 4a3f
00000040: 542e 9dbe 0613 7cbe c9cc a0be 7d1f 9a3d
00000050: 94dd 72bd 8387 18be 484c 68be e4c2 a73e
00000060: 0074 173e 71dc 543d db06 d7be cef5 853d
00000070: 5720 82bd 2036 c1be 0f75 6abe 2b2d 64be
00000080: cfbd f8be 697a aabe 5364 e6be 10fa e6be
00000090: 5fa7 1abf 1a72 4dbe a6d6 efbe 21e8 2bbf
000000a0: fc76 bfbe 1847 2dbe 171e cbbe 33e1 2c3d
000000b0: 16a3 b4be cba6 dc3c 77d9 ffbd 423c 0bbf
000000c0: d153 b8bd d6f1 2dbf af1d 383e ff8f 903d
000000d0: 2b45 633e 8c74 6b3e de80 25be de38 6bbe
000000e0: 18f8 b4bd 34b6 5f3e 0f91 3dbc 82e1 fe3e
000000f0: 3067 90bd 361c 7dbd 6e3d 92bd a0f2 1a3e
00000100: f2e8 b8bd f228 a0be 2069 d63d 44f8 103d
00000110: d07a dfbc 0d65 50bf fe4c 69bd 265f 8bbe
00000120: 4c83 eebe 4e26 e23e d55f bcbe 8931 813e
00000130: 732f a3be 39ea 1a3e 66ca cc3d 9a52 8dbe

lstm_list.0.conv_ss.weight f4 [80, 16, 2]
0.16479607 -0.12087381 0.038955823 0.16535617 -0.19378488 0.29542747 0.020557461 -0.07326625
0.6427173 -0.13496728 0.32759714 0.06942307 0.074902035 0.029963326 -0.27919224 -0.3002283
-0.24903944 0.2338016 -0.02707092 -0.24041684 0.07556582 -0.16797417 -0.1324055 0.13321634
0.24298894 0.5175361 -0.29605928 -0.15270345 0.13567385 0.4629845 -0.0016172406 -0.040846385
-0.03069686 0.01854969 -0.2777515 -0.25406694 0.19414485 0.2638782 0.23274975 0.15042266
-0.104010604 -0.022521812 -0.06891505 -0.17509344 0.24814157 0.12159958 -0.13759334 -0.12001667
0.18160684 0.018728824 -0.15387702 -0.10213684 -0.14023012 -0.1635506 -0.21504773 -0.17873782
-0.17535852 -0.2895239 -0.2751908 -0.13699755 -0.4223613 -0.2833552 -0.29777035 0.13840798
0.08522265 -0.018325804 0.13764024 0.17056493 0.60337543 0.06484247 -0.5911314 -0.37378353
0.46547613 0.20207563 0.051596086 0.043338094 0.26534742 0.42376176 -0.45102262 -0.032538168
-0.16216214 -0.13776852 0.19447497 0.24877268 0.24651125 -0.02509875 0.10780249 0.19871867
0.32750884 0.24522218 -0.3259788 0.19074918 0.7754643 0.19104515 -0.064274766 0.012168827
-0.26204365 0.23575541 0.13540347 -0.047664836 -0.42484096 0.021843052 0.30831456 0.25549996
-0.439917 -0.29115552 0.200421 -0.19221663 0.19140345 -0.19364528 0.17512968 0.19100636
-0.1286357 -0.052908614 -0.098507695 0.16819312 -0.23987307 0.117166586 -0.26944602 0.25339472
0.093727164 -0.7759921 0.09679748 0.33934855 -0.13995597 0.08261897 0.17838362 -0.12884799
0.2843377 0.31282726 -0.06133267 0.12010705 -0.21604319 0.3865142 -0.40090623 0.16090094
0.11543329 -0.16425134 -0.1778258 0.00013797781 0.16607629 -0.47245947 -0.17018566 0.16997103
0.049637713 0.013568515 -0.4240863 0.28571996 -0.123969205 0.16460513 0.19982101 -0.025035767
-0.18311483 0.1363149 -0.013636421 -0.03652955 -0.067100376 -0.08574012 -0.3409426 0.4363579
-0.45962578 -0.0096831145 -0.0009182408 0.11350301 0.10773113 0.14939103 0.32326752 0.15230495
-0.72900903 -0.19618946 0.45462078 0.17766412 0.06276544 -0.3278464 0.25251505 0.11909612
0.2228673 0.18649387 0.013848605 -0.20055602 -0.07702912 0.6024494 -0.3186388 -0.41447988
0.31015328 0.18024209 0.06318914 0.07623019 0.02132744 0.10894445 0.36335582 0.10908165
-0.01641351 -0.14413306 0.056124043 0.1341034 -0.39680928 -0.21071757 0.027346667 -0.22766718
-0.21956547 0.028417984 0.17908792 0.24978206 0.435034 0.076845154 -0.20775063 -0.20131984
-0.35687715 -0.031576257 0.113471605 0.19917081 0.075472854 -0.09784764 0.3381477 0.252173
0.33625823 0.03022654 -0.36414227 0.15235819 0.35783687 0.14812937 0.098667435 -0.50213695
0.15164463 0.2246603 -0.043822102 -0.1571891 -0.130323 0.2963817 0.19770299 0.0754917
0.2556217 0.14861046 -0.22624677 -0.20388894 -0.3123132 0.084028386 -0.4812034 -0.3516305
-0.3393401 -0.37174267 0.15723173 0.38734648 0.055475622 0.003521738 0.107875675 -0.20757581
-0.17831425 -0.2696353 0.01356631 0.09838504 0.19474676 0.18317792 0.07679534 -0.053708564
00000000: 4dc0 283e b08c f7bd 2490 1f3d 2153 293e
00000010: 8b6f 46be 4542 973e 1f68 a83c 9e0c 96bd
00000020: 1f89 243f dd34 0abe d0ba a73e af2d 8e3d
00000030: 3d66 993d a675 f53c 49f2 8ebe 86b7 99be
00000040: 3204 7fbe b069 6f3e d6c3 ddbc d52f 76be
00000050: 41c2 9a3d 6c01 2cbe 4f95 07be dd69 083e
00000060: 18d2 783e 3f7d 043f 1595 97be 4b5e 1cbe
00000070: 16ee 0a3e 4e0c ed3e 97f9 d3ba 8a4e 27bd
00000080: fb77 fbbc 85f5 973c 7235 8ebe 1015 82be
00000090: e8cd 463e 0b1b 873e f355 6e3e 6608 1a3e
000000a0: 8303 d5bd aa7f b8bc 5523 8dbd b24b 33be
000000b0: d318 7e3e 3309 f93d 45e5 0cbe 4dcb f5bd
000000c0: 25f7 393e 316d 993c f091 1dbe 1f2d d1bd
000000d0: 7c98 0fbe cf79 27be 7935 5cbe 0c07 37be
000000e0: 2f91 33be 7a3c 94be cfe5 8cbe 1649 0cbe
000000f0: be3f d8be ef13 91be 5b75 98be d2ba 0d3e
00000100: 3689 ae3d ff1f 96bc 90f1 0c3e 93a8 2e3e
00000110: d076 1a3f 21cc 843d 6354 17bf 8e60 bfbe
00000120: e352 ee3e eaec 4e3e 6b56 533d 4983 313d
00000130: 9edb 873e 4df7 d83e 70ec e6be be46 05bd
00000140: d50d 26be 3113 0dbe 7224 473e 44be 7e3e
00000150: 726d 7c3e e59b cdbc 8dc7 dc3d e87c 4b3e
00000160: 3daf a73e 861b 7b3e b1e6 a6be c153 433e
00000170: d484 463f 57a1 433e 7da2 83bd c25f 473c
00000180: 962a 86be de69 713e 35a7 0a3e 343c 43bd
00000190: c184 d9be 33f0 b23c 68db 9d3e e4d0 823e
000001a0: cd3c e1be 5612 95be 2a3b 4d3e 70d4 44be
000001b0: 44ff 433e f34a 46be 3255 333e 2c97 433e
000001c0: 14b9 03be b4b6 58bd 67be c9bd d13a 2c3e
000001d0: 49a1 75be 09f5 ef3d d4f4 89be f4bc 813e
000001e0: 07f4 bf3d 6ba7 46bf c23d c63d 18bf ad3e
000001f0: 9e50 0fbe 2234 a93d 32aa 363e baf0 03be
00000200: b694 913e e52a a03e f737 7bbd affa f53d
00000210: 6d3a 5dbe 30e5 c53e 9543 cdbe 37c3 243e
00000220: 4a68 ec3d 8131 28be f717 36be 23ae 1039
00000230: e70f 2a3e 35e6 f1be 2645 2ebe e30c 2e3e
00000240: ea50 4b3d 7a4e 5e3c d721 d9be e349 923e
00000250: 91e3 fdbd 3f8e 283e e19d 4c3e cf17 cdbc
00000260: 7482 3bbe 2296 0b3e 4c6b 5fbc 02a0 15bd
00000270: ec6b 89bd 8498 afbd 0790 aebe 4d6a df3e
00000280: 1254 ebbe eda5 1ebc 19b6 70ba 4474 e83d
00000290: 24a2 dc3d f6f9 183e 5283 a53e d4f5 1b3e
000002a0: 56a0 3abf e4e5 48be 0ec4 e83e 95ed 353e
000002b0: 2b8b 803d 7cdb a7be a749 813e abe8 f33d
000002c0: 5337 643e 40f8 3e3e 42e5 623c 8f5e 4dbe
000002d0: 71c1 9dbd 203a 1a3f a024 a3be b536 d4be
000002e0: 69cc 9e3e 6291 383e 4f69 813d 931e 9c3d
000002f0: e2b6 ae3c 451e df3d c609 ba3e 3366 df3d
00000300: a075 86bc 9e97 13be 53e2 653d 6752 093e
00000310: 962a cbbe 59c6 57be 1e06 e03c 9621 69be
00000320: c5d5 60be d5cc e83c d362 373e dec6 7f3e
00000330: c7bc de3e fe60 9d3d 95bc 54be ca26 4ebe
00000340: 9ab8 b6be 1b56 01bd cd63 e83d 6ff3 4b3e
00000350: 8391 9a3d 5864 c8bd b221 ad3e d21c 813e
00000360: 0a2a ac3e a69d f73c db70 babe c903 1c3e
00000370: 6536 b73e 3aaf 173e 2712 ca3d 0c8c 00bf
00000380: bb48 1b3e 5a0d 663e ce7e 33bd 2ef6 20be
00000390: 6473 05be 58bf 973e a772 4a3e 649b 9a3d
000003a0: d9e0 823e 572d 183e 3cad 67be 43c8 50be
000003b0: 84e7 9fbe 1317 ac3d 4b60 f6be ea08 b4be
000003c0: fcbd adbe 0e55 bebe 5b01 213e 4752 c63e
000003d0: 683a 633d f6cc 663b eced dc3d c18e 54be
000003e0: 0398 36be a30d 8abe 3a45 5e3c 197e c93d
000003f0: b26b 473e fe92 3b3e e046 9d3d 83fd 5bbd

lstm_list.0.conv_ss.bias f4 [80]
0.06685347 -0.52222854 0.28012642 0.22455142 0.062560424 -0.3680455 0.27639896 0.4961158
0.3670428 0.45663032 0.16798206 0.3354558 -0.019682618 0.4470169 0.46279684 0.792903
-0.306937 -0.24617481 -0.3140647 0.07527366 -0.05708094 -0.14895207 -0.2268489 0.32677147
0.14745842 0.05196797 -0.4199741 0.0654102 -0.06365972 -0.3772433 -0.22887677 -0.22282845
-0.48582697 -0.33296534 -0.44998586 -0.45112637 -0.60411793 -0.2006304 -0.46843442 -0.6715097
-0.37398025 -0.16921611 -0.39671397 0.042206917 -0.3533422 0.027253665 -0.12493152 -0.5438876
-0.09030957 -0.6794633 0.17972675 0.07058893 0.22200765 0.22993702 -0.16100337 -0.22973447
-0.08836589 0.2184686 -0.011581558 0.49781412 -0.07048419 -0.061794467 -0.07140624 0.15131456
-0.093528606 -0.31300187 0.09970362 0.0362889 -0.04369507 -0.813686 -0.057704475 -0.23442374
-0.47641903 0.44169873 -0.36774415 0.25213614 -0.32280883 0.14051661 0.097464725 -0.2645987
00000000: 79ea 883d c5b0 05bf bb6c 8f3e cff0 653e
00000010: ae1f 803d 7670 bcbe 2a84 8d3e e402 fe3e
00000020: 09ed bb3e 73cb e93e 7d03 2c3e ddc0 ab3e
00000030: 713d a1bc 66df e43e b5f3 ec3e b1fb 4a3f
00000040: d926 9dbe 4015 7cbe 17cd a0be 1429 9a3d
00000050: b4cd 69bd e486 18be 144b 68be 974e a73e
00000060: 57ff 163e 5edc 543d d806 d7be c8f5 853d
00000070: 0760 82bd 0926 c1be ac5e 6abe 242d 64be
00000080: 50be f8be 6f7a aabe 8c64 e6be 09fa e6be
00000090: 79a7 1abf 0e72 4dbe a3d6 efbe 0fe8 2bbf
000000a0: 577a bfbe fd46 2dbe 181e cbbe 29e1 2c3d
000000b0: 45e9 b4be 1443 df3c 19dc ffbd 383c 0bbf
000000c0: 39f4 b8bd 4ff1 2dbf 4a0a 383e ee90 903d
000000d0: f955 633e 9c74 6b3e 11de 24be 833f 6bbe
000000e0: 2df9 b4bd 3cb6 5f3e 93c0 3dbc 7ee1 fe3e
000000f0: 045a 90bd 321c 7dbd 6f3d 92bd 34f2 1a3e
00000100: ed8b bfbd c841 a0be 6931 cc3d aba3 143d
00000110: 9af9 32bd ba4d 50bf 875b 6cbd c70c 70be
00000120: 32ed f3be 5626 e23e f648 bcbe fd17 813e
00000130: 3347 a5be 96e3 0f3e 969b c73d 7b79 87be

lstm_list.0.residual_conv.weight f4 [16, 16, 1, 1]
0.085574724 0.17453751 0.22526395 -0.07591261 0.08472443 0.0017216719 -0.15376416 0.015737819
-0.0030779263 -0.18056984 0.86266273 0.31941763 -0.11331022 0.081957184 0.008419057 -0.034856383
-0.08803292 0.12770386 0.014406481 -0.0043690684 -0.047912367 -0.0037034806 -0.00038945177 -0.042057708
0.0011361231 -0.8883878 -0.06880054 -0.015799418 0.0014093124 -0.020416582 0.027026279 0.01488595
0.0023400888 0.053858608 -0.14428677 -0.046052415 0.5006043 -0.2698455 0.1055956 0.28842944
-0.18681748 -0.11709912 -0.00025965433 -0.006058821 0.063595705 0.21103399 -0.22557482 -0.086435355
0.16812804 0.30865526 0.43053916 0.028730866 0.20871557 -0.16650745 -0.33222952 0.410707
0.03203678 0.0627202 -0.30335793 -0.41632518 -0.1933375 0.080526695 0.018251203 0.02667027
-0.12008883 0.34059337 -0.10110797 0.0800579 -0.24394478 0.04291506 -0.10318442 0.19590037
0.0049914857 0.090833075 -0.07587016 0.005797086 -0.08378686 -0.16191453 0.23073328 0.29757053
0.26305577 -0.016414464 -0.13651186 0.34208295 0.033008818 -0.09548543 0.08353392 -0.48479372
0.097336076 0.047716595 0.022111276 0.1881036 -0.30544433 -0.11923245 -0.053699072 0.023534324
-0.25190246 -0.05605419 0.07301646 0.09997076 -0.23137124 0.292542 -0.11481105 -0.113913305
0.34283307 -0.0035383133 -0.019327573 0.17130856 0.020741306 -0.11840989 0.018127436 0.13283263
0.050047264 0.0011425766 0.015050729 -0.15268141 0.13541865 0.062214635 -0.21359976 -0.1391464
-0.066283956 0.011069236 0.009633965 -0.04949313 -0.13585815 0.2782472 -0.1425525 -0.04072591
-0.1509675 0.09446086 -0.19464247 0.44955602 0.039275736 -0.39236933 0.37303728 0.010188544
0.18072334 -0.037015807 -0.006695703 -0.10553778 -0.147586 -0.3424798 0.031692393 0.34400967
-0.6301063 0.5242069 0.02598255 -0.29119936 -0.10393963 0.06995635 0.11981224 -0.31477672
-0.47714227 0.09035382 -0.008835528 0.074243106 0.1385416 -0.01840922 -0.3502811 -0.041140717
0.1804407 -0.37833616 0.047718722 0.048001382 -0.10223867 0.06955977 0.21607868 -0.12631516
0.09480102 0.011038678 0.069495976 -0.8954233 -0.10956288 0.010232726 -0.010470027 0.11939847
-0.33328742 -0.15778652 0.07170992 0.2276307 0.033643838 -0.19653335 -0.29159266 0.08272115
-0.28635216 0.003424125 0.020338016 -0.03956027 -0.1961122 -0.17829484 0.21065561 0.31328583
-0.0025561333 0.18666728 -0.22141394 0.22320761 -0.051932145 0.09406996 -0.07500434 0.5845574
-0.08260738 -0.019378623 0.071787015 0.02205203 -0.07255314 -0.013780689 0.33755288 0.5081417
-0.43975198 0.10554107 0.116352834 0.1864 -0.011794274 0.13730425 0.027769944 0.13813302
0.020836785 0.06831078 0.07176147 0.1413454 0.16493346 -0.22650862 -0.09118608 -0.1274523
-0.18265982 -0.124253795 0.11020925 -0.17537722 0.08079074 0.009834473 -0.005615325 -0.27403125
0.16279352 0.13611595 -0.09850003 0.025369538 -0.029369446 -0.021084929 -0.23181711 -0.18010817
-0.0662766 0.031965453 -0.11561055 0.018855726 -0.1336121 -0.13607922 0.0019200967 -0.006256097
-0.015355774 -0.040921025 -0.061371442 0.16035031 -0.022369338 -0.17433465 0.30922294 0.09147919
00000000: cd41 af3d f6b9 323e 98ab 663e 1278 9bbd
00000010: 0184 ad3d b9a9 e13a 5a74 1dbe 99ec 803c
00000020: 09b7 49bb 4de7 38be 77d7 5c3f b58a a33e
00000030: 300f e8bd 2bd9 a73d 16f0 093c 91c5 0ebd
00000040: 9b4a b4bd cdc4 023e 2909 6c3c 672a 8fbb
00000050: c23f 44bd 18b6 72bb 552f ccb9 b444 2cbd
00000060: f7e9 943a 626d 63bf 4ce7 8cbd c86d 81bc
00000070: adb8 b83a ad40 a7bc 3766 dd3c 33e4 733c
00000080: 2d5c 193b d89a 5c3d e9bf 13be 75a1 3cbd
00000090: 9a27 003f 3029 8abe 8242 d83d 06ad 933e
000000a0: 154d 3fbe aad1 efbd 3722 88b9 1389 c6bb
000000b0: 773e 823d 4b19 583e 16fd 66be 0505 b1bd
000000c0: c229 2c3e 1008 9e3e a16f dc3e fe5c eb3c
000000d0: 89b9 553e ee80 2abe fd19 aabe 3048 d23e
000000e0: 0039 033d 7373 803d bb51 9bbe 9328 d5be
000000f0: 44fa 45be 2eeb a43d 8c83 953c 9c7b da3c
00000100: 22f1 f5bd 4162 ae3e b211 cfbd 65f5 a33d
00000110: a9cc 79be b4c7 2f3d 5a52 d3bd 1b9a 483e
00000120: 9e8f a33b b106 ba3d d061 9bbd 7bf5 bd3b
00000130: 7298 abbd eccc 25be 5845 6c3e 2a5b 983e
00000140: 3faf 863e a077 86bc c4c9 0bbe 7f25 af3e
00000150: 4134 073d dd8d c3bd d513 ab3d e236 f8be
00000160: 2358 c73d 7a72 433d b522 b53c 3b9e 403e
00000170: 3363 9cbe 2530 f4bd 8ff3 5bbd 0ecb c03c
00000180: 5cf9 80be 1499 65bd a789 953d 78bd cc3d
00000190: 95ec 6cbe 11c8 953e 0e22 ebbd 614b e9bd
000001a0: d187 af3e 0ce3 67bb dc54 9ebc 836b 2f3e
000001b0: ace9 a93c e280 f2bd fd7f 943c 4705 083e
000001c0: 5cfe 4c3d 82c2 953a 5597 763c 8458 1cbe
000001d0: 30ab 0a3e c6d4 7e3d e5b9 5abe 657c 0ebe
000001e0: e2bf 87bd be5b 353c c7d7 1d3c 4fb9 4abd
000001f0: 661e 0bbe 6b76 8e3e 48f9 11be 36d0 26bd
00000200: 3997 1abe b274 c13d 5b50 47be 352c e63e
00000210: 98df 203d a2e4 c8be befe be3e daed 263c
00000220: 8a0f 393e e39d 17bd a167 dbbb 3124 d8bd
00000230: c920 17be 8359 afbe e2cf 013d 0922 b03e
00000240: a54e 21bf 6c32 063f 5bd9 d43c 1518 95be
00000250: 4dde d4bd 4645 8f3d 1f60 f53d 6a2a a1be
00000260: fe4b f4be 6c0b b93d e4c2 10bc c50c 983d
00000270: d9dd 0d3e efce 96bc 0b58 b3be 2b83 28bd
00000280: 72c5 383e 47b5 c1be b574 433d 199d 443d
00000290: 8262 d1bd 5a75 8e3d bb43 5d3e c358 01be
000002a0: 0a27 c23d 92db 343c e853 8e3d 763a 65bf
000002b0: 8162 e0bd 2aa7 273c 7a8a 2bbc 2f87 f43d
000002c0: a6a4 aabe ca92 21be a7dc 923d 0618 693e
000002d0: 1fce 093d 0a40 49be a24b 95be b569 a93d
000002e0: c09c 92be 4967 603b e99b a63c f309 22bd
000002f0: a3d1 48be ec92 36be 1bb6 573e 0067 a03e
00000300: cd84 27bb b525 3f3e 56ba 62be 8990 643e
00000310: cdb6 54bd c0a7 c03d e09b 99bd 8ea5 153f
00000320: 0f2e a9bd ebbf 9ebc 1205 933d 75a6 b43c
00000330: be96 94bd 66c8 61bc bbd3 ac3e 9315 023f
00000340: 2c27 e1be eb25 d83d 654a ee3d a4df 3e3e
00000350: c53c 41bc 7c99 0c3e cb7d e33c be72 0d3e
00000360: e8b1 aa3c 86e6 8b3d adf7 923d d9bc 103e
00000370: 51e4 283e e0f1 67be c4bf babd db82 02be
00000380: 2d0b 3bbe c678 febd 63b5 e13d 1696 33be
00000390: 9e75 a53d c520 213c c300 b8bb d34d 8cbe
000003a0: 58b3 263e fb61 0b3e 62ba c9bd c7d3 cf3c
000003b0: 3198 f0bc 4dba acbc 7761 6dbe 476e 38be
000003c0: 07bc 87bd 35ee 023d 39c5 ecbd 5377 9a3c
000003d0: 9cd1 08be 5a58 0bbe c1ab fb3a f2ff ccbb
000003e0: c996 7bbc ce9c 27bd 9f60 7bbd df32 243e
000003f0: e73f b7bc c884 32be 7852 9e3e 7159 bb3d

lstm_list.0.residual_conv.bias f4 [16]
0.6215782 0.16920264 -0.24687335 0.15360473 -0.22843458 0.022118008 -0.07059673 0.34722897
-0.037364744 -0.32528648 -0.10472587 -0.55406505 0.05213336 0.032535236 0.10055821 0.08626246
00000000: c01f 1f3f 7543 2d3e 5ecc 7cbe 8f4a 1d3e
00000010: c1ea 69be d330 b53c 0595 90bd ffc7 b13e
00000020: c60b 19bd f38b a6be 847a d6bd 35d7 0dbf
00000030: ca89 553d ab43 053d 76f1 cd3d 5faa b03d

lstm_list.1.conv_is.weight f4 [80, 16, 1, 1]
-0.87596124 -0.6803052 0.67960775 -0.3296568 0.43525565 -0.33299032 0.1455475 -0.5972552
0.33272332 -0.69510823 0.13843265 0.008493679 -0.26205686 0.09687983 0.1622241 -0.044330336
0.44846356 -0.20442069 0.02012049 -0.32265517 -0.54419917 0.7298705 0.33046734 -0.15650989
0.05336888 -0.7726486 0.10773518 -0.16652673 0.1273829 0.0014025662 -0.30945116 0.29670367
-0.33779648 -0.38923448 -0.24359995 0.20102201 -0.320332 0.100521155 0.08076529 0.13901766
-0.31886402 -0.3863277 0.050694507 -0.38119218 -0.053927984 0.062196855 -0.43929031 0.038353283
0.015955865 -0.0402597 0.76081425 -0.40893707 0.20069563 0.18188903 0.11592293 -0.1480375
0.46363524 0.36356533 0.42460662 -0.29795277 0.00491477 0.051639374 0.11698962 0.82298976
0.021745907 0.25933424 0.021323921 0.2732082 -0.020825535 0.35143566 0.08328768 -0.15906245
-0.172186 0.1810257 0.048422605 -0.28535149 0.051195502 -0.07791332 0.2068217 0.23775397
-0.24552622 0.0036328686 -0.010409669 0.45985124 -0.34417424 0.56718594 0.4310635 -0.07754918
0.22161627 0.11044338 -0.22576068 0.117124796 -0.32517466 -0.046033952 -0.6185469 0.6179347
0.2030033 0.15020081 0.03990497 0.17076473 -0.16751173 0.078224525 0.16457027 0.44752386
-0.13557737 0.30448496 0.4778167 -0.5086254 0.3101973 0.4440026 -0.106635064 0.49497023
0.556976 -0.102127515 -0.52515227 0.8921558 0.20058227 0.43395332 0.064091004 -0.21041042
0.2222712 0.24073894 -0.017076435 -0.36582005 -0.44521007 -0.111743845 -0.16641763 0.39699268
0.25622416 -0.010053225 0.053719897 -0.14617316 -0.20695421 0.13864812 -0.006345049 -0.08199931
-0.09004304 -0.5691946 0.17484793 -0.07318607 0.0171663 -0.085511915 -0.12801825 0.38536334
0.49018252 -0.67159647 -0.17254984 0.22512472 0.24165827 -0.09896209 -0.47660765 0.08416263
0.4585456 0.025077261 -0.21936381 0.035904277 0.4665427 0.21864678 -0.02926056 -0.30857444
-0.17368881 -0.03411044 0.44001588 -0.5597491 -0.21892403 -0.042448413 -0.19171515 -0.0763247
0.1633955 -0.06608272 0.12879807 0.05240426 -0.18953314 0.06845722 0.26468116 0.060290046
-0.20954926 0.07911546 0.17871179 0.5661483 0.05823699 -0.43499085 0.0052662687 -0.15705921
0.015685262 0.66986656 0.061774958 0.47581288 0.19259387 0.12662813 0.7023337 -0.0457184
-0.08674503 0.06659176 -0.011986889 -0.5388343 0.026003184 0.19536452 0.29736707 0.023837084
0.30977285 -0.23954587 0.09612309 -0.5310928 0.3337878 0.27999458 0.09225572 0.1784713
0.4120256 0.023954399 -0.15869151 -0.078104295 -0.032489613 -0.27048478 0.12423519 0.07801477
0.019433286 -0.1907777 -0.059477095 0.070256375 -0.20620267 0.069670446 -0.17005295 -0.00722705
0.5705207 -0.13593234 -0.21800894 0.6205077 -0.2721252 -0.11598737 0.44023177 -0.23150656
0.01827466 -0.15921865 -0.040473178 -0.07801743 -0.10177845 0.12946571 0.33167055 0.07148404
0.06511942 -0.5085001 0.029812243 -0.31243074 0.014741515 0.2741159 0.06703278 -0.06016579
0.12772903 -0.21730831 -0.045785576 -0.04499237 -0.20895779 0.17497388 0.12193272 0.18648897
00000000: ff3e 60bf 7b28 2ebf c6fa 2d3f c7c8 a8be
00000010: d4d9 de3e b57d aabe 670a 153e b7e5 18bf
00000020: b65a aa3e 9df2 31bf 4ac1 0d3e 1229 0b3c
00000030: 512c 86be ef68 c63d 131e 263e ba93 35bd
00000040: 049d e53e a853 51be bad3 a43c 0f33 a5be
00000050: a350 0bbf cbd8 3a3f 0433 a93e 2144 20be
00000060: 5499 5a3d 4ccc 45bf 43a4 dc3d fc85 2abe
00000070: aa70 023e 50d6 b73a 6270 9ebe 8be9 973e
00000080: a9f3 acbe be49 c7be 4472 79be b7d8 4d3e
00000090: 8e02 a4be 09de cd3d 4668 a53d a55a 0e3e
000000a0: 2542 a3be bfcc c5be 0ba5 4f3d 9f2b c3be
000000b0: 97e3 5cbd 21c2 7e3d a9ea e0be 5518 1d3d
000000c0: e0b5 823c 5be7 24bd b9c4 423f 3360 d1be
000000d0: 2883 4d3e 1e41 3a3e 0069 ed3d 2497 17be
000000e0: 9961 ed3e 3c25 ba3e 0a66 d93e 448d 98be
000000f0: 140c a13b cf83 533d 4198 ef3d 75af 523f
00000100: 7924 b23c 75c7 843e 81af ae3c f2e1 8b3e
00000110: 509a aabc 60ef b33e bb92 aa3d 44e1 22be
00000120: 8751 30be cd5e 393e c856 463d 9719 92be
00000130: 60b2 513d 0591 9fbd 11c9 533e c775 733e
00000140: 3a6b 7bbe 6c15 6e3b 518d 2abc 9f71 eb3e
00000150: 9b37 b0be 1933 113f 5bb4 dc3e 1bd2 9ebd
00000160: 60ef 623e 2430 e23d cf2d 67be 20df ef3d
00000170: 4b7d a6be 198e 3cbd 1759 1ebf f830 1e3f
00000180: 19e0 4f3e 3ece 193e 6573 233d f3dc 2e3e
00000190: 3288 2bbe 2e34 a03d 1c85 283e d921 e53e
000001a0: cbd4 0abe 74e5 9b3e 64a4 f43e 4635 02bf
000001b0: 2ed2 9e3e 4f54 e33e 7c63 dabd bd6c fd3e
000001c0: fb95 0e3f 3b28 d1bd 6170 06bf 5364 643f
000001d0: 7065 4d3e 212f de3e 2542 833d d475 57be
000001e0: 109b 633e 4584 763e e1e3 8bbc c44c bbbe
000001f0: 93f2 e3be f5d9 e4bd 6269 2abe a042 cb3e
00000200: d02f 833e 48b6 24bc 6509 5c3d 6bae 15be
00000210: ceeb 53be c6f9 0d3e 21ea cfbb 41ef a7bd
00000220: 7c68 b8bd bdb6 11bf 560b 333e 94e2 95bd
00000230: 57a0 8c3c df20 afbd 3717 03be 584e c53e
00000240: 34f9 fa3e bfed 2bbf e8b0 30be 1887 663e
00000250: 4475 773e a3ac cabd eb05 f4be 755d ac3d
00000260: 7dc6 ea3e d46e cd3c e8a0 60be 5d10 133d
00000270: afde ee3e f1e4 5f3e d8b3 efbc 78fd 9dbe
00000280: 7bdb 31be 64b7 0bbd c349 e13e b84b 0fbf
00000290: 9f2d 60be 63de 2dbd fa50 44be 2050 9cbd
000002a0: 2651 273e 6156 87bd a4e3 033e d9a5 563d
000002b0: fa14 42be 4d33 8c3d 4a84 873e b2f2 763d
000002c0: 1594 56be 4907 a23d 3900 373e 18ef 103f
000002d0: e989 6e3d 1fb7 debe aa90 ac3b 21d4 20be
000002e0: 617e 803c 607c 2b3f bd07 7d3d bf9d f33e
000002f0: 5437 453e ceaa 013e 24cc 333f 3843 3bbd
00000300: 61a7 b1bd 4361 883d a864 44bc 0bf1 09bf
00000310: a104 d53c a30d 483e 7f40 983e fd45 c33c
00000320: 8c9a 9e3e 834b 75be 2fdc c43d b3f5 07bf
00000330: 3ce6 aa3e 735b 8f3e 91f0 bc3d 2ec1 363e
00000340: 05f5 d23e 043c c43c 0780 22be 25f5 9fbd
00000350: d413 05bd fb7c 8abe 056f fe3d 35c6 9f3d
00000360: 8e32 9f3c 3b5b 43be 419e 73bd 93e2 8f3d
00000370: cb26 53be 61af 8e3d 5c22 2ebe e4d0 ecbb
00000380: a50d 123f d931 0bbe bc3d 5fbe 98d9 1e3f
00000390: ff53 8bbe c98a edbd 0f66 e13e 0e10 6dbe
000003a0: bdb4 953c 370a 23be 34c7 25bd 9ac7 9fbd
000003b0: 3871 d0bd a992 043e b9d0 a93e 3966 923d
000003c0: 555d 853d 102d 02bf ce38 f43c ecf6 9fbe
000003d0: 6586 713c eb58 8c3e 7b48 893d 6770 76bd
000003e0: 66cb 023e 1286 5ebe a889 3bbd eb49 38bd
000003f0: 08f9 55be 5a2c 333e ddb7 f93d f7f6 3e3e

lstm_list.1.conv_is.bias f4 [80]
-0.10652816 0.43335557 0.3348345 0.24568072 0.5144418 0.552573 0.07383739 0.10421299
0.5370672 0.30496198 0.6948942 0.29184192 0.7199626 0.7766999 0.18712889 0.45491463
-0.48760644 -0.46085256 -0.7190317 -0.3782035 -0.3816107 -0.34886736 0.26338336 0.09334922
-0.4714045 -0.49010146 -0.12513803 -0.25195011 -0.7339922 0.11993582 -0.10866639 -0.43686724
-0.6756087 0.04048662 -0.39767426 -0.21283804 -0.58310926 -0.77471495 -0.13641028 -0.29663572
-0.5276982 -0.36076906 -0.31062675 -0.30731657 0.7224673 -0.3201049 -0.35431936 -0.07351016
0.056830294 0.2453132 0.27653483 0.1717778 0.53923887 0.17548683 -0.17916836 0.23849452
-0.09404657 -0.28100875 0.048759583 -0.19986013 -0.29983005 0.22507177 0.12350473 0.32927683
-0.5722007 0.0171318 0.26247472 -0.051243253 -0.28729975 -0.051466074 0.3411705 -0.35334
-0.03548895 0.009133356 0.052230865 0.054061595 -0.06796578 0.051619336 -0.04657937 0.1389012
00000000: 702b dabd c8e0 dd3e 6d6f ab3e ba93 7b3e
00000010: 75b2 033f 6d75 0d3f 0f38 973d 9f6d d53d
00000020: 3c7d 093f fa23 9c3e 96e4 313f 4e6c 953e
00000030: 784f 383f ced5 463f b79e 3f3e 92ea e83e
00000040: 8da7 f9be def4 ebbe 7612 38bf e4a3 c1be
00000050: 7a62 c3be be9e b2be 2fda 863e e02d bf3d
00000060: ee5b f1be 94ee fabe 2f24 00be 9bff 80be
00000070: eae6 3bbf e9a0 f53d 7c8c debd 10ad dfbe
00000080: b1f4 2cbf 4cd5 253d f69b cbbe 37f2 59be
00000090: a646 15bf b853 46bf 23af 0bbe a3e0 97be
000000a0: 3b17 07bf b9b6 b8be 780a 9fbe 9958 9dbe
000000b0: 9ef3 383f cae4 a3be 5969 b5be 7f8c 96bd
000000c0: e2c6 683d 6233 7b3e f995 8d3e 85e6 2f3e
000000d0: 8f0b 0a3f d2b2 333e e977 37be e837 743e
000000e0: 7d9b c0bd 61e0 8fbe 21b8 473d 22a8 4cbe
000000f0: 5383 99be 3779 663e 0cf0 fc3d f996 a83e
00000100: bf7b 12bf fd57 8c3c 1663 863e 72e4 51bd
00000110: f418 93be 17ce 52bd e6ad ae3e fbe8 b4be
00000120: dc5c 11bd 12a4 153c 08f0 553d b16f 5d3d
00000130: a531 8bbd cc6e 533d 02ca 3ebd 1e3c 0e3e

lstm_list.1.conv_ss.weight f4 [80, 16, 2]
-0.17949733 0.08375415 -0.29503384 0.29735798 -0.29526594 -0.007057115 0.41586742 0.025559708
-0.9706967 -0.26422995 -0.10824453 0.18437123 -0.2972488 -0.15586774 0.13749313 -0.029277178
0.04826246 0.18916222 0.36388683 0.28715202 0.16590254 0.20348182 0.15650919 0.11171733
0.059464566 -0.24976502 0.2749696 0.10800532 0.39362973 -0.023971116 -0.037833508 -0.028318979
0.027724126 -0.61489415 0.11135432 -0.85350275 -0.061083034 0.12512748 -0.3773024 -0.11135847
0.009005818 -0.24439323 0.3061201 0.0699401 -0.051149573 -0.03212052 0.07080097 -0.31639895
-0.3253529 0.5670449 0.11067272 -0.7456453 -0.09092951 0.15978272 0.17603476 -0.45592293
-0.32136 -1.0602151 0.49208272 0.29805574 -0.15071814 -0.71481913 0.121978335 0.062904716
0.25256225 0.5683695 0.05861291 -0.32629442 0.13114071 -0.343882 0.19164933 -0.12952915
0.15392202 -0.38461152 0.19700879 -0.18958409 -0.013513742 -0.346509 -0.3109026 -0.34784663
-0.554019 -0.14225449 0.109232776 0.12556058 -0.25721666 0.050766785 0.027574131 0.51963556
-0.023260038 -0.35132396 0.002906896 0.117980346 0.019384678 -0.18051031 -0.07897855 -0.078015536
0.045912743 0.01929052 0.028374398 -0.23598969 0.060474552 0.05021469 -0.15819973 -0.094231986
0.030539759 0.02014681 0.23955864 -0.26477832 0.13467002 -0.020760894 -0.04982392 0.007875509
0.1529566 -0.18853827 0.13064532 -0.05312032 -0.18050845 -0.22335774 0.7766038 0.059231605
-0.11581255 0.10009301 -0.113836154 0.18214108 -0.09745328 0.16539422 0.16137025 0.22821872
0.024877414 0.22441721 -0.4035788 -0.1787187 -0.093497746 -0.15136708 0.030700097 0.019385815
0.0046535665 -0.0186831 -0.02466547 -0.10655006 0.18705238 -0.050707754 0.15603867 -0.07461596
-0.07096753 -0.14309143 -0.0007305666 0.3603383 0.11045618 0.106782004 0.1571716 0.18610325
-0.07224746 -0.014813717 0.20977266 0.23814227 0.04868281 0.024333429 0.24692123 0.27602735
0.44280708 -0.041374464 0.15229866 0.21267544 -0.060663085 -0.060453534 0.23071325 0.41796774
0.055811577 0.1606427 0.37044266 0.31620955 0.052022565 -0.091981865 -0.16959876 -0.29197407
-0.11525824 -0.35566863 0.3586272 0.43147627 0.020242767 0.22807942 -0.16045909 -0.11528866
-0.09803145 0.10595899 0.45951325 0.09234542 -0.31801894 -0.19683 0.07259532 -0.16617405
0.14717928 0.027663702 -0.12175089 -0.3108537 -0.23814005 0.03724316 -0.025724348 -0.014672124
-0.22984205 0.26078975 -0.051141486 0.070801586 -0.34058583 -0.17978577 0.46430346 0.8811732
0.13888432 -0.23109141 -0.044322513 -0.025184257 -0.33873218 -0.06044313 -0.08017003 0.047286358
-0.58045626 -0.31493482 0.71347517 0.32649294 0.23353298 -0.02380542 0.12406291 -0.038801655
0.2584524 0.20254186 -0.3539939 -0.065153874 -0.15101358 -0.2674456 -0.054444432 -0.045108467
-0.1961422 -0.03748502 -0.1356805 -0.13495429 -0.23887451 0.147788 -0.04411226 -0.016849168
-0.3181831 -0.03107813 -0.21218358 0.032652274 -0.23620054 -0.19086072 -0.27956468 0.048283916
-0.70330536 -0.1088431 0.3718652 0.13939187 -0.07501414 -0.4382443 -0.053988557 0.028927153
00000000: 26ce 37be 4c87 ab3d ad0e 97be 4e3f 983e
00000010: 192d 97be 5f3f e7bb 93ec d43e 9862 d13c
00000020: 947f 78bf 2649 87be 4faf ddbd d0cb 3c3e
00000030: ff30 98be cb9b 1fbe 00cb 0c3e b1d6 efbc
00000040: dbae 453d beb3 413e 604f ba3e 9705 933e
00000050: 5be2 293e 8a5d 503e f243 203e 0ecc e43d
00000060: 1e91 733d 67c2 7fbe d1c8 8c3e e531 dd3d
00000070: d689 c93e 135f c4bc 4ff7 1abd 34fd e7bc
00000080: b51d e33c b469 1dbf bc0d e43d 287f 5abf
00000090: 3432 7abd 6b21 003e c82d c1be e90f e4bd
000000a0: 238d 133c 3842 7abe c6bb 9c3e c13c 8f3d
000000b0: 3782 51bd ce90 03bd 1900 913d 0bff a1be
000000c0: a894 a6be db29 113f 61a8 e23d 9ce2 3ebf
000000d0: 4039 babd 159e 233e 7542 343e bb6e e9be
000000e0: 4c89 a4be 21b5 87bf 44f2 fb3e c39a 983e
000000f0: db55 1abe 63fe 36bf c7cf f93d 30d4 803d
00000100: d74f 813e aa80 113f 1714 703d 1010 a7be
00000110: c049 063e 4d11 b0be b93f 443e 4aa3 04be
00000120: bc9d 1d3e cdeb c4be acbc 493e 5522 42be
00000130: be68 5dbc a169 b1be a02e 9fbe f418 b2be
00000140: 30d4 0dbf 29ab 11be 6fb5 df3d f492 003e
00000150: e7b1 83be d5f0 4f3d 25e3 e13c d606 053f
00000160: d68b bebc bce0 b3be 9f81 3e3b ae9f f13d
00000170: 9ecc 9e3c b2d7 38be 82bf a1bd 9cc6 9fbd
00000180: 000f 3c3d 2707 9e3c 6d71 e83c 48a7 71be
00000190: 2ab4 773d ebad 4d3d 1cff 21be b3fc c0bd
000001a0: 842e fa3c ec0a a53c dc4e 753e 0691 87be
000001b0: f0e6 093e c012 aabc 2b14 4cbd 4708 013c
000001c0: a8a0 1c3e 2d10 41be e3c7 053e b194 59bd
000001d0: 35d7 38be e4b7 64be 82cf 463f d79c 723d
000001e0: 212f edbd 90fd cc3d ee22 e9bd 3183 3a3e
000001f0: 9695 c7bd 1a5d 293e 3e3e 253e 2bb2 693e
00000200: b8cb cb3c a0cd 653e e1a1 cebe 0902 37be
00000210: bf7b bfbd f9ff 1abe c57e fb3c 00cf 9e3c
00000220: f27c 983b 4d0d 99bc 3d0f cabc eb36 dabd
00000230: a98a 3f3e efb2 4fbd 9ac8 1f3e 41d0 98bd
00000240: 6d57 91bd 8f86 12be 7f83 3fba 437e b83e
00000250: da36 e23d 86b0 da3d 98f1 203e da91 3e3e
00000260: 7af6 93bd 3cb5 72bc a5ce 563e 91db 733e
00000270: a067 473d e656 c73c ebd8 7c3e 7553 8d3e
00000280: 9cb7 e23e 4578 29bd 2ef4 1b3e 97c7 593e
00000290: db79 78bd 209e 77bd 1840 6c3e deff d53e
000002a0: ae9a 643d 857f 243e a9aa bd3e 38e6 a13e
000002b0: 9d15 553d fd60 bcbd 4cab 2dbe a07d 95be
000002c0: 830c ecbd 331a b6be fc9d b73e 75ea dc3e
000002d0: 29d4 a53c a78d 693e 634f 24be 761c ecbd
000002e0: b6c4 c8bd 0701 d93d 5245 eb3e 981f bd3d
000002f0: 61d3 a2be ce8d 49be dbac 943d 8829 2abe
00000300: 2ab6 163e fd9e e23c 8858 f9bd 3728 9fbe
00000310: fcda 73be 498c 183d debb d2bc 5963 70bc
00000320: b75b 6bbe 3c86 853e bc79 51bd 6c00 913d
00000330: 4461 aebe c319 38be 2fb9 ed3e 9194 613f
00000340: b137 0e3e 3aa3 6cbe 868b 35bd 374f cebc
00000350: 4e6e adbe 3793 77bd 2f30 a4bd 57af 413d
00000360: c898 14bf 233f a1be 4fa6 363f 152a a73e
00000370: 4523 6f3e 9603 c3bc b214 fe3d 7cee 1ebd
00000380: df53 843e 2267 4f3e b03e b5be 656f 85bd
00000390: 4ea3 1abe a1ee 88be 2001 5fbd a8c3 38bd
000003a0: 80d9 48be e489 19bd d4ef 0abe 7531 0abe
000003b0: 859b 74be bd55 173e 0faf 34bd 4407 8abc
000003c0: e5e8 a2be 9097 febc a746 59be 64be 053d
000003d0: 8ede 71be fe70 43be 1a23 8fbe 5bc5 453d
000003e0: d20b 34bf 22e9 debd 1e65 be3e bebc 0e3e
000003f0: 03a1 99bd 8f61 e0be 1b23 5dbd a3f8 ec3c

lstm_list.1.conv_ss.bias f4 [80]
-0.10639683 0.43331763 0.334884 0.24568045 0.51440954 0.55381924 0.07383504 0.104211785
0.5370637 0.30495903 0.6948942 0.29183203 0.72004384 0.7767003 0.18712927 0.454909
-0.4876068 -0.46085447 -0.7190256 -0.37820366 -0.3816107 -0.34886357 0.26332927 0.09334864
-0.4716416 -0.49010384 -0.12514292 -0.25194907 -0.73321044 0.119934045 -0.10866644 -0.4368604
-0.6756082 0.040486638 -0.39768156 -0.21283796 -0.58310914 -0.7747122 -0.13641042 -0.29663518
-0.52769744 -0.36076868 -0.31063482 -0.30731195 0.7224504 -0.32010192 -0.35432118 -0.07350572
0.05683827 0.24531333 0.27639958 0.17177793 0.53923815 0.17384715 -0.17807943 0.23849465
-0.094094895 -0.28097984 0.048759427 -0.19986585 -0.29980558 0.2250721 0.12350494 0.3292279
-0.56964296 0.016933635 0.26285902 -0.04216737 -0.28687742 -0.11741265 0.34196982 -0.35329008
-0.039827246 0.0058549396 0.07376596 0.05407196 -0.068601534 0.04187984 -0.04484455 0.1381072
00000000: 95e6 d9bd cfdb dd3e ea75 ab3e a893 7b3e
00000010: 58b0 033f 19c7 0d3f d336 973d fd6c d53d
00000020: 027d 093f 9723 9c3e 96e4 313f 026b 953e
00000030: cb54 383f d5d5 463f d19e 3f3e d5e9 e83e
00000040: 99a7 f9be 1ef5 ebbe 1012 38bf e9a3 c1be
00000050: 7a62 c3be 3f9e b2be 18d3 863e 922d bf3d
00000060: 027b f1be e4ee fabe 7725 00be 78ff 80be
00000070: aeb3 3bbf fb9f f53d 838c debd 2bac dfbe
00000080: a9f4 2cbf 51d5 253d eb9c cbbe 32f2 59be
00000090: a446 15bf 8a53 46bf 2caf 0bbe 91e0 97be
000000a0: 2e17 07bf acb6 b8be 870b 9fbe fe57 9dbe
000000b0: 82f2 383f 66e4 a3be 9669 b5be 2b8a 96bd
000000c0: 3fcf 683d 6b33 7b3e 3f84 8d3e 8ee6 2f3e
000000d0: 830b 0a3f fd04 323e 745a 36be f137 743e
000000e0: d3b4 c0bd 97dc 8fbe f7b7 473d a2a9 4cbe
000000f0: 1e80 99be 4d79 663e 28f0 fc3d 8f90 a83e
00000100: 1fd4 11bf 68b8 8a3c 7595 863e b1b7 2cbd
00000110: 99e1 92be 0b76 f0bd ab16 af3e 70e2 b4be
00000120: e521 23bd cbda bf3b 9c12 973d 8f7a 5d3d
00000130: f67e 8cbd 328a 2b3d ebae 37bd f96b 0d3e
